weights/Lenet.pth (torch, 487623 bytes, 10 tensors)

conv1.weight f4 [16, 3, 5, 5]
00000000: d73f cbbd 0d7c 38be 03be f6bd d07c bebd
00000010: 61ab 75bd 232d fcbd fd37 8cbe 05a2 a4bd
00000020: e458 1dbd b2ff d7bd 1a17 923a 760b 1d3e
00000030: 7834 033e 3729 dabc a75c c9bc 649b e93d
00000040: 328f a93d 410f 243d 98d3 1b3e d661 233e
00000050: 193c 0c3e ba54 0e3e 945b 983d 1125 79bd
00000060: af5a 1bbd 5fd2 3bbd 04b6 c8bd 599b bcbd
00000070: bbe5 a4bd 76ee 013d 711e 00bd 13d0 9abd
00000080: 7e11 43be 66e5 aabd d24e fa3c e871 59bd
00000090: 1c33 a83d 8560 5f3d 1407 113e 5a3f 963d
000000a0: 421c ae3d 5108 4e3e 8baa 3e3e 04ad b33d
000000b0: 2582 91bd ac8c cb3d 55ba 37bd 8397 b83d
000000c0: 108c e8bd 81f0 2a3d c021 b43d 9dd2 10bd
000000d0: ec7a 41be ea9b abbd c1df bcbc 4f67 eebd
000000e0: 28da 42be aef8 3dbe ef2c bfbb 7c6e 0bbc
000000f0: 7259 40bd 0408 35bd 2d65 bf3d 13dd a33d
00000100: 695f 473d 8a6b a13d a895 0f3e c2c6 2e3e
00000110: 09c5 a83d 2514 17bd d79f 9e3c a752 b53d
00000120: 486e e8bd e45a a73d d10b 733d 7272 133e
00000130: 1ae1 f1bb 96b9 d53d 52a1 d83d a0c2 5bbd
00000140: 5011 1c3e 44e4 e6bc 5236 863e 5804 38bd
00000150: 0281 86bd e214 0dbe 282e 27be 5d4c 943d
00000160: e8eb 6dbe 618c bfbd 977c d6bd a5aa e5bd
00000170: a80c e33d 4011 41be a1a6 cbbd 17d5 503d
00000180: 2a5d 7f3a a51e 193e 9b6a eb3d 1ec4 a43c
00000190: 7dec 9b3d addc c7bd 3f1d 8b3e 72d3 f5bc
000001a0: 79b9 223d 65c1 a1bd 4e3f 42be ba5f 483e
000001b0: b35f 363d db3e cdbd ff71 46bc 3b72 7fbe
000001c0: 0b18 25bb dc32 33bc da6f 49be 935c f3bd
000001d0: 3ec0 ecbd 1301 e83d 9769 3ebd a830 aebc
000001e0: 8183 ab3d 818c 683d bdf6 433e 5541 013e
000001f0: 0fcd 953d 6de3 1b3d b11d 15be 7f17 c93d
00000200: 042b 89bd 01e5 053c 1646 cc3c 5558 58bd
00000210: 7a50 253e f59b 8d3c b1a7 d23d 6959 b53d
00000220: 4df2 7cbd d454 043e 4936 1bbd d251 90bd
00000230: c243 153d 3e1d 3bbe 0e4c 873d 42bc 02be
00000240: b7c2 853c 00b7 613d 7597 8b3a 0d2f c13c
00000250: f307 5ebc 82d6 fd3c d753 82be e619 bb3c
00000260: 3be3 9c3e a778 4f3d fec5 98bd da2e aebb
00000270: acca 923e 4833 063e bb72 16be faa2 3ebe
00000280: 2389 4c3e 7386 aa3d 289e 603c 9061 6abe
00000290: 98c4 25bd 8a7e 143e b6dc 53be ab50 0ebe
000002a0: 2fc3 1c3b 2e91 e93d fef7 863c 635c 07be
000002b0: 19ee d5bd 87f0 04bc f0a9 723e 0f77 ecbd
000002c0: d917 993d 4d6f 2d3e ea0d f73b a0da 0dbe
000002d0: c88a 15be d443 633e 90f5 133e e546 2dbe
000002e0: 107c 33be f7d2 6e3e e8d6 0d3e 4292 21be
000002f0: c1af 81be c207 24bb 53fe 80bc 12b1 4fbd
00000300: 7256 0abe a28c a63d bcce 083d 4e4e 933c
00000310: 7932 3abd 9727 f4bd 6f7b d73d 1f30 b13d
00000320: b26b 1cbd 0dbb 8fbd 3c17 2e3e fb82 9a3d
00000330: eb72 05bd b84c 82bd 61e8 993e d00d 203d
00000340: 686e 10be 9ef0 2dbd 1e9c 023e ad49 663d
00000350: a5f9 2dbd 51c6 28be f7c7 31bd 6341 743d
00000360: 70d5 dcbc 08b2 2abe cbae 77bd ac14 933d
00000370: 6270 d2bd 9ab8 a4bd bbd8 00be c255 143e
00000380: e108 833e 5155 e8bd f32d b93d 69c6 633d
00000390: b3cd f8bd 041e d2bd e5a2 553c 94e1 093e
000003a0: 4122 c6bd 6519 7abd b705 b43d 4f7c ed3d
000003b0: 2403 61bd 9d0d 92be e96d d5bd 5c97 e83d
000003c0: b5ba 153c a013 45bd cc70 0dbe 9c8c b93d
000003d0: 32af ea3d 6aa7 07be ae11 b23d 0db3 303d
000003e0: 686c ed3d 322b 003e 5c64 75bc 32e3 0d3e
000003f0: bab0 133e 2c25 913d 1dfd 8d3c 6456 89bd
-0.09924286 -0.18016072 -0.120479606 -0.0930115 -0.059977893 -0.12313297 -0.27386466 -0.08038715
-0.03841485 -0.10546817 0.0011145801 0.15336403 0.12812984 -0.02663098 -0.024580313 0.114065915
0.082792655 0.04005361 0.15217435 0.1595529 0.136948 0.13899508 0.07439342 -0.060826365
-0.03792828 -0.045854922 -0.09800342 -0.09209318 -0.0805163 0.031721555 -0.03127903 -0.07559218
-0.19049641 -0.083445355 0.030555163 -0.053087145 0.08212873 0.054535408 0.14162856 0.07336302
0.085014835 0.2012036 0.18619744 0.087732345 -0.07104901 0.099389404 -0.044855434 0.090132736
-0.1135484 0.04173327 0.087955 -0.035357106 -0.18894547 -0.083793476 -0.023055913 -0.11640798
-0.19028533 -0.18551895 -0.005834214 -0.008510228 -0.0469603 -0.044197097 0.093454696 0.08001151
0.048674975 0.078818396 0.14021933 0.17068008 0.082407065 -0.036884446 0.019363327 0.08853655
-0.113491595 0.08171633 0.05933744 0.14399126 -0.0073815705 0.10435788 0.105776444 -0.053652406
0.15240979 -0.028185017 0.26213318 -0.044926018 -0.06567575 -0.13777497 -0.16326201 0.07241128
-0.23234522 -0.09352947 -0.104729824 -0.112141885 0.11086398 -0.18854237 -0.09943891 0.05098447
0.00097413606 0.14953096 0.11494943 0.020113047 0.07613466 -0.097588874 0.2717075 -0.030008052
0.03972766 -0.07898215 -0.18969461 0.19567767 0.04452486 -0.10021754 -0.01211214 -0.24945919
-0.0025191333 -0.010937419 -0.19671574 -0.118828915 -0.11560105 0.1132833 -0.046487417 -0.021263435
0.08374692 0.05677462 0.19137092 0.12622578 0.073145024 0.038058687 -0.14562108 0.09818935
-0.06697658 0.008172275 0.024935763 -0.052818615 0.1614398 0.01728628 0.10285891 0.08854944
-0.061754514 0.12922984 -0.037893567 -0.07046856 0.036441572 -0.18272874 0.06606303 -0.12767127
0.016328199 0.055106163 0.0010649996 0.023582006 -0.0135517 0.030986074 -0.2545459 0.022839498
0.30642113 0.050652172 -0.07459639 -0.0053156437 0.2867025 0.131055 -0.14692204 -0.18616858
0.19974189 0.083264254 0.013709582 -0.2288878 -0.04047069 0.14501396 -0.20689663 -0.1389796
0.002392005 0.11404644 0.016475674 -0.13218836 -0.10445804 -0.008113987 0.23697639 -0.11546146
0.07475252 0.16936989 0.0075395005 -0.1385293 -0.14603722 0.22193843 0.14449143 -0.16921575
-0.17527795 0.23322664 0.13851511 -0.15778449 -0.25329402 -0.0025029038 -0.015746271 -0.050705977
-0.13509539 0.08132292 0.033400282 0.017981675 -0.04545829 -0.11921614 0.1052159 0.086517565
-0.038188644 -0.07018099 0.1700105 0.07544514 -0.032580297 -0.06362289 0.30060104 0.039075673
-0.14104617 -0.0424658 0.12754866 0.056222606 -0.042474408 -0.16481902 -0.043403592 0.05963267
-0.026957244 -0.16669476 -0.06046943 0.07181677 -0.102753416 -0.080430225 -0.12582676 0.14485839
0.25592712 -0.11344398 0.09041967 0.05560914 -0.12148609 -0.10259631 0.013039325 0.13464957
-0.09674502 -0.061059374 0.087901525 0.115959756 -0.054934636 -0.2852601 -0.10421354 0.113569945
0.009138753 -0.04811442 -0.1381256 0.09060022 0.11459197 -0.13247457 0.086947784 0.043139506
0.115929425 0.12516478 -0.014977541 0.138562 0.14422885 0.07087168 0.017332608 -0.06705931

conv1.bias f4 [16]
00000000: 1bf6 dfbd aeed ebbd 554a 83bd e1b3 82bd
00000010: 046f 0d3e 59aa c7bc 122a 3cbe e54c e4bd
00000020: 8bc4 b03d 9aac 103d c622 8bbe bae7 cabd
00000030: e9ef aabd 72f8 e8bd ad98 07be a35d 93be
-0.10935613 -0.11519943 -0.06410662 -0.063819654 0.1381188 -0.02437322 -0.18375424 -0.11147479
0.086312376 0.035320856 -0.27174968 -0.099074796 -0.083465405 -0.11375512 -0.13241835 -0.28782377

conv2.weight f4 [32, 16, 5, 5]
00000000: a0f6 3dbe 51fc 21be 4f36 85bd 7975 c0bd
00000010: 3c3f 19be 3e5d 5cbe 2647 29be c5de 3dbe
00000020: 67b8 ddbd 87d3 8dbd 1996 49be 27dc 64be
00000030: 8658 f3bd ebb4 56bd 319d fa3d 66d3 99be
00000040: 4e58 98be 29ea 35be 89bd 08be 334b ad3c
00000050: e238 5abe 4da6 0bbe 13b1 d1bd 6125 973b
00000060: e725 043d d539 80be a5ad 08be 9030 50be
00000070: 8866 02be ed70 79bc 2103 82be b409 6dbe
00000080: 7492 bebd fb9a f53c 5096 013e ac17 a8be
00000090: d0a6 54be 25d2 41be 46fe d4bd 6588 73bc
000000a0: 4a07 e4be 225c b8be f0ec 93be fc89 12be
000000b0: 7910 e43a 8da4 8bbe efa2 3fbe 7bff eabd
000000c0: f651 81bd 21e4 433a 21d0 4bbe c243 25be
000000d0: f2ae 99bd 4f8f 79bc 874e 953d b565 acbe
000000e0: ea3d 5fbe 4804 c5bd cce4 ae3d f400 013e
000000f0: 9097 90be c169 27bd 7cb0 67bb 8db0 293d
00000100: 08be d33d 1232 84be 88fc cabc 2a43 84bc
00000110: dde7 dc3d 8176 263d 8e7d e5bd f7da e23d
00000120: 33b0 023e 63f8 a93d 195c 2b3d c0eb 0d3d
00000130: 0ff1 8a3d 7cbd 193c 4fb9 25bc bfdc bc3c
00000140: 2394 153b c2d8 373c e866 273c 4776 193d
00000150: d0e5 883c 535a b43c 49f6 693d 4467 a0bc
00000160: 5357 b13d 871e 3e3d 2d22 b53b adf4 073d
00000170: 2c78 a63d c36a 073e 1032 80bc b0f2 d93d
00000180: a18f 2c3e c511 513e ea22 203e a14d 22bd
00000190: b8d6 923d 7ac1 2b3d dab7 9f3d 354e 6e3d
000001a0: 2984 8a3d f1dc 56b9 a120 c13c ab59 ac3d
000001b0: 1485 b73c 6de4 863c 16e3 b33d 4c7f 7b3d
000001c0: e414 5c3d e199 ffbc e150 cc3c aa04 8f3c
000001d0: 5d9c 4e3d 20f7 4a3d 4d58 35bd 9955 a9bc
000001e0: 68e6 9f3d 57b3 32bd fe87 8bbd 24b6 efbc
000001f0: 05e3 233c 72c5 54bc 7107 ef3b 26b0 81bd
00000200: fd5c 86bd 3f6c bdbb 5c20 603c 31b5 9cbc
00000210: 7cd7 34bd e0fe 8cbd 73b5 8a3c 9bea d53c
00000220: efae 083c 497d 6e3d 1da3 523b 86ae d33c
00000230: 5d6b a03d f8ac 4d3d 6350 0a3e b800 1abc
00000240: 3165 773d 3e6c d73d 346d 0b3e 77be 243e
00000250: a934 1a3e 4bae 713d 8e4a ffbd eee8 debd
00000260: 5dec 04bd 429f 013e ab95 4f3e 1476 25be
00000270: 6f4e fdbd 0e96 15be aca6 e439 f23e 9d3d
00000280: 1728 3fbe e3c5 1cbe dc89 8fbd 926c 0fbd
00000290: a02d c73d c6e8 5fbe 9173 37be 4895 fbbd
000002a0: a3ae d53c eb8d 7c3d 1442 6abe e1f5 d8bc
000002b0: 65e8 b1bc e5c9 f33d f3ac e43d 215d 20bc
000002c0: bf92 f23c 727c 81bd d630 afbd bacd afbd
000002d0: 287c 43bd 27f1 04bd 575a 893c fbc3 01bd
000002e0: 821e 6dbd 81cf fbbc 117b d93c 4493 eabb
000002f0: daba dabc 8e6b 463c aac7 ae3c da22 96bc
00000300: 8276 82bd 4b19 b6bd 473b c3bd d14d 2a3c
00000310: 953f 033d 8a1e aa3c 4911 01bc b43d b23c
00000320: c983 97bd e4f6 1a3d 26f3 793d 65d6 fa3c
00000330: 25e5 113d 62f9 1cbd 062f 263d 7349 0c3d
00000340: ad51 98bd b469 33bc f815 b9bb 1ebc 633d
00000350: 7883 753b 6488 213d 5c5d 453d fa14 273d
00000360: 120d 283d 79ed 823d 4530 823d 7d94 04bc
00000370: 0f19 75bc 9363 b83d 5ecb ce3c 287c 443d
00000380: 1bdc 763d a5a3 703d 4751 f63c e002 003d
00000390: c5e2 c23c 74af c5ba 0f16 44bc 4484 383d
000003a0: 6f54 68bb 40ba 073d 07a3 313c a243 9c3c
000003b0: 61b6 613c 7390 fdbc 2510 94ba 7e57 76bd
000003c0: 747f d9bc f883 f83b c1f4 50bd 3bd2 97bd
000003d0: 9fd4 f3bd 9a62 33bc e4d1 c53c 1871 42bd
000003e0: 9656 1dbe 8021 d7bc b890 82be 1b10 1ebe
000003f0: 4902 1bbe 6d91 90bc 07a9 543d 7ff9 46be
-0.18551111 -0.15818907 -0.06504499 -0.09397406 -0.14965528 -0.21519944 -0.16531047 -0.18542011
-0.108261876 -0.06925111 -0.19686164 -0.22349606 -0.11882119 -0.05241863 0.12237013 -0.30044097
-0.2975487 -0.17765106 -0.13353552 0.021154022 -0.21310762 -0.13637657 -0.10238852 0.00461261
0.03226271 -0.25044122 -0.1334749 -0.20331025 -0.12734425 -0.0152246775 -0.25393012 -0.23148233
-0.093052775 0.029981127 0.12654996 -0.3283056 -0.20766759 -0.1892782 -0.10400061 -0.014864062
-0.4453681 -0.36007792 -0.28891706 -0.1431045 0.0017399929 -0.2727398 -0.18714498 -0.1147451
-0.06314461 0.00074726535 -0.19903614 -0.16139129 -0.07504071 -0.015231921 0.072903685 -0.33671346
-0.21800962 -0.09619957 0.08539733 0.1259802 -0.28240633 -0.04087234 -0.0035352996 0.041428138
0.1033898 -0.2581945 -0.02477862 -0.016145308 0.10786412 0.040640358 -0.11205588 0.110769205
0.12762527 0.08299329 0.041835878 0.034648657 0.067842595 0.0093835555 -0.010114982 0.023054479
0.0022823892 0.011221113 0.010217406 0.037466314 0.016711146 0.022015726 0.05711964 -0.01958049
0.08659234 0.046415832 0.0055277557 0.033192325 0.0812839 0.1322432 -0.015648872 0.10641992
0.16851665 0.20416935 0.15638319 -0.039624814 0.071698606 0.04193256 0.07798739 0.058180053
0.06763489 -0.00020490937 0.023575129 0.0841554 0.022402324 0.016466344 0.087835476 0.061400697
0.05373086 -0.031201305 0.02494091 0.017458279 0.05044209 0.049552083 -0.044273663 -0.020670699
0.078076184 -0.043628063 -0.06813048 -0.029261656 0.010002856 -0.012986528 0.0072945883 -0.06332426
-0.06560705 -0.005780726 0.01367959 -0.019129368 -0.044150814 -0.06884551 0.016932225 0.026112845
0.008342489 0.05822495 0.003214068 0.025840055 0.07832978 0.050213784 0.13507228 -0.009399585
0.060399238 0.105186924 0.13615876 0.16088282 0.15059151 0.05900411 -0.12465392 -0.108842716
-0.032451976 0.12658408 0.20271938 -0.16158324 -0.12368476 -0.14608023 0.0004361173 0.076780215
-0.18667637 -0.15309863 -0.070087165 -0.03501565 0.09725499 -0.2186614 -0.17915179 -0.122843325
0.02608425 0.06165878 -0.2287677 -0.026484432 -0.02171726 0.11903743 0.111658 -0.009787829
0.02961099 -0.06322564 -0.085542366 -0.08584161 -0.047725827 -0.032456543 0.01676671 -0.031681042
-0.057890423 -0.030738594 0.02654794 -0.0071586687 -0.026700426 0.012110604 0.021335442 -0.018327165
-0.0637026 -0.08891543 -0.09532791 0.010394529 0.03204306 0.020766515 -0.007877656 0.021757938
-0.07398183 0.03783311 0.0610229 0.03061981 0.03561892 -0.038323767 0.04057219 0.034249734
-0.074374534 -0.010950495 -0.005648371 0.055599324 0.0037462395 0.039436713 0.048184738 0.04079149
0.04102809 0.063929506 0.06356863 -0.008092043 -0.014959588 0.09003367 0.025243457 0.047969967
0.060268503 0.058749814 0.030068053 0.03125274 0.023789773 -0.0015082196 -0.01196815 0.045048013
-0.0035450717 0.033136606 0.010842091 0.019075219 0.013776393 -0.030952668 -0.0011296315 -0.060142033
-0.026550032 0.0075840913 -0.051014666 -0.07413145 -0.11905789 -0.010948801 0.024147935 -0.047471136
-0.15365061 -0.026261091 -0.25501037 -0.15435831 -0.1513759 -0.01764747 0.05191901 -0.19431113

conv2.bias f4 [32]
00000000: 0f30 003f 90c1 9a3e 3af3 453e d61e 143e
00000010: 2fb5 893e aab7 9a3c fdb0 25bd 7dd3 053d
00000020: c067 74be 3f25 9f3e 44f3 003e 6777 ca3d
00000030: eed7 90bc 7695 48be b144 053e 4ec0 ec3d
00000040: 9b58 7a3d 320b f7bd 7ba2 31bd 33f0 c9bd
00000050: b8f1 a63e 1747 003d 7b21 e23d c320 16be
00000060: 6123 d2bd 1bb1 10bd def8 6c3d faba 9abe
00000070: 756b 3dbd 6da6 9a3d 9a51 b13d e25f 303e
0.5007333 0.302258 0.19331065 0.14464888 0.26896045 0.018886406 -0.040451992 0.032672394
-0.23867702 0.31083104 0.12592798 0.098860554 -0.017681088 -0.19588265 0.13014485 0.11560117
0.061119657 -0.12062682 -0.043367844 -0.098602675 0.32606292 0.031317797 0.11041542 -0.14660935
-0.10260654 -0.03532515 0.057854526 -0.30220777 -0.046245057 0.075512744 0.086581424 0.17224076

fc1.weight f4 [120, 800]
00000000: eb0d f6bb c274 89bc f6f5 f7bc 9f79 2ebd
00000010: 02d0 c0bb 5f12 6fbc 32f4 d83c cc15 2cbb
00000020: 53e8 983b da50 e8bc 9be3 03bd 0338 04bd
00000030: 541d 45bc c799 fd3b 4777 863c 8a7f 03bd
00000040: 10a2 27bd a2d2 b23c 8883 05bd 1eb9 abbc
00000050: a470 42bd 39a4 b13c 0072 97bc 5865 083c
00000060: fa14 6abc 97aa fabb 8b9d f3bb 4098 9f39
00000070: b21c 573c 02e3 7dba 133c abbb 6983 e639
00000080: 78b2 33bc 3018 6ebc 3b92 c839 69c6 babb
00000090: dd7f 01bc cacd 30bd 74dc 25bc 46bb 17bc
000000a0: cd2c 90bc 6cd8 abbc 0e21 31bc 2382 3cbc
000000b0: e4d5 863c 2cc9 29bd 86e3 bb3c cbc9 8fbc
000000c0: 07d2 e2b9 2b54 183b 1cf4 2dbd 783e 2ebd
000000d0: d47e d1bc d866 76bd 43c4 3fbc f13c 1ebd
000000e0: 6f9a 70bd 2e50 a5bc 450d dc39 1622 cdbb
000000f0: 421b afbc 1bda 86bd 6026 bcbc cf5b a23b
00000100: 4afe 06bd 46fa 09bb b499 18bd 8a8e 743c
00000110: 55a3 c7bc 51eb 01bd 8f1b 84bc 8802 65bc
00000120: 479a 9abc dd76 11bd 18b2 b0bc 1a3a 1cbd
00000130: 17ac e5bb 9e92 48bb d3d3 4dbc 6d47 bd3c
00000140: 23ae 2bbb 5dde 863b 2c89 2bbb adc0 88bc
00000150: 355b 46bd 5289 3c3c ab64 bdbb f23e 24bd
00000160: 7c63 4dbd 2209 523c f124 c5bc 2b7f 9abb
00000170: 16ac e1bc 08df ac3c 303f 23bc 06b3 48bc
00000180: 13c8 823c ad01 e2bc 8b29 5dbc ac91 a1bc
00000190: e12a dabc ed91 35bc f1f3 5bbd ab05 54bd
000001a0: f36a 6ebd e3e1 66bd eea4 36bd c654 a3bb
000001b0: 2e15 f9ba 530a e6bc 223b 54bd cd7e cc3a
000001c0: 243f 4abc d6b8 13bd 63fc 2bbd 8ab9 20bd
000001d0: 53a8 0bbd 9fe8 4f3c 0110 7c39 75f6 6aba
000001e0: 9792 50bb 3fbb ac3b ddb6 dbbc 3ee6 ca3b
000001f0: 87ea 09bd 1f50 b1bc 78de 4ebc 491a 983c
00000200: c8b1 3dbc 2f61 8ebc 14cd b53c 50a8 9dbc
00000210: 249f 293c 0428 2cbc 1688 273b 19cb f1bc
00000220: b28c fbbc 19de 3dbb 2713 17bc 1958 dcbc
00000230: 177c b23c 36bc 7b3c 28f7 b53c 2cbc 94bc
00000240: 8161 21bd 4bdb 95bb 7c75 7dbc 33e4 a2bc
00000250: ecf2 96ba 1387 00bd 3248 f03c 58bc 21bc
00000260: d368 5ebd ad79 27bd 4737 2ebd 5e7a 78bd
00000270: a8ef f9ba 34de 79bb 8f19 95bb 71d2 2ebd
00000280: 464d 06bd ea67 9c3a 0936 2e3c 26d5 173c
00000290: 5b5c 6bbc 1ee0 a3bb 7a71 d53c db2a 97bc
000002a0: 8ea8 193c 2068 8d3c 67cb febc 120b 54bc
000002b0: 6a13 d23c 7482 a6bc 714d f4bc 2f61 c4bc
000002c0: 05f1 d2bc 5490 07bd 7650 37bd 16b1 72bc
000002d0: 1e93 28bc 8951 13bc 0a8d 35bd b5cc da3b
000002e0: dd07 2bbd 9d0b 963b 6eb7 29bd 46db 26bd
000002f0: 3f3c dabc 791e a9bb 088b b1bc e73e b4bc
00000300: f053 07bd c5d5 75bd b40f 02bd 974a 6abd
00000310: 5872 81bd a9fb 5ebc dce3 4ebd 8049 27bc
00000320: c00c f83b 6ba1 173d afc2 603c d128 e2b8
00000330: d074 97ba 5fce 05bd d46c 27bd 3a3f 35bb
00000340: b577 d4bc 8e03 473b bcbe 32bc 9560 5cbd
00000350: 1bf6 af3b 902d a4bc 277c b73c f618 f4bb
00000360: 9f3e 18bd cf94 29bc cd9c 693c 7435 a0bb
00000370: eabc b4ba 4f87 083c 15e5 8fbc 9a17 a23c
00000380: ec9c e8bc cde3 243b 8e5d 533c 946c 50bd
00000390: b601 f63b c0c9 62bc 534d 2b3c e6db 33bd
000003a0: f533 883b 5a66 bcbc 7816 77bc 3b53 0abd
000003b0: 8c4b 6fbd cbc7 5ebd 7fbf 5cbd 8c4e 10bd
000003c0: dd5b 9a3c 3932 b2ba 8540 24bd e5f0 aabc
000003d0: 74e7 a7bc 8be0 fbbc 897e ffbc 2202 f3bc
000003e0: a0c8 16bc 8ef3 30bc 22fa 1fbd 3267 c7bc
000003f0: 0f86 933c e05b 11bb 2885 12bd dd8e cc3b
-0.0075089834 -0.016779307 -0.03026865 -0.042596456 -0.0058841715 -0.014591782 0.026483629 -0.002625811
0.004666367 -0.028358866 -0.032199483 -0.03227998 -0.012030918 0.007739279 0.016414298 -0.032104053
-0.04092604 0.021828953 -0.03259614 -0.020962294 -0.047470704 0.021684753 -0.018486977 0.0083249435
-0.014287228 -0.0076497304 -0.007434552 0.00030440278 0.0131294 -0.0009685011 -0.0052256673 0.00043966927
-0.010967843 -0.014532134 0.00038255923 -0.005699922 -0.00790402 -0.043165006 -0.010123361 -0.009260958
-0.017599488 -0.020977221 -0.0108111035 -0.011505636 0.016459413 -0.041451618 0.02293564 -0.017552277
-0.00043262562 0.0023243527 -0.04246913 -0.042540044 -0.025573172 -0.060156673 -0.011704507 -0.038632337
-0.05874103 -0.020179834 0.00041971556 -0.006260167 -0.021375302 -0.06584569 -0.022967517 0.004954792
-0.032957353 -0.0021053716 -0.037255958 0.014926562 -0.024369875 -0.031718556 -0.016126422 -0.013977654
-0.018872393 -0.035513747 -0.021569297 -0.038141347 -0.00700904 -0.0030604969 -0.01256271 0.023105348
-0.0026196323 0.0041158632 -0.002617429 -0.016693437 -0.048426826 0.011507349 -0.005779823 -0.04009909
-0.050143704 0.01281956 -0.024065467 -0.0047148666 -0.027547877 0.021102443 -0.009963796 -0.012249714
0.015964543 -0.02758869 -0.013498674 -0.019722782 -0.026631774 -0.011082155 -0.053699438 -0.051763218
-0.058207463 -0.056367766 -0.044590883 -0.004984471 -0.0019003504 -0.028081095 -0.051814206 0.0015601754
-0.012344155 -0.036064945 -0.04198874 -0.039239444 -0.034096073 0.012689739 0.00024038555 -0.00089631166
-0.0031825656 0.005271345 -0.026820594 0.006191998 -0.03367093 -0.02164465 -0.012626283 0.018567221
-0.011578031 -0.017380325 0.022192515 -0.019245297 0.0103528835 -0.010507587 0.0025563291 -0.02951579
-0.030706737 -0.0028971492 -0.009220875 -0.026897477 0.021787686 0.015364697 0.02221258 -0.018156134
-0.039399628 -0.004573261 -0.015469905 -0.019884204 -0.0011516488 -0.031378817 0.0293313 -0.009871565
-0.054299187 -0.040887523 -0.042533185 -0.060663573 -0.0019068616 -0.0038126828 -0.004550166 -0.04268116
-0.032788537 0.0011932824 0.010633 0.009267127 -0.014365281 -0.005001082 0.026055086 -0.018453052
0.0093785655 0.017261565 -0.03110285 -0.0129420925 0.025644023 -0.020325877 -0.029822083 -0.023972122
-0.025749693 -0.033096626 -0.044754468 -0.014812728 -0.010288982 -0.008991607 -0.04432396 0.006677235
-0.041755546 0.004579021 -0.041434698 -0.04073646 -0.026640056 -0.0051611033 -0.02167274 -0.02200265
-0.033039033 -0.06001832 -0.031753257 -0.05720004 -0.063206375 -0.013609805 -0.050510272 -0.010210395
0.0075698793 0.037019175 0.013718291 -0.000107841224 -0.0011555199 -0.032667514 -0.04087527 -0.0027656094
-0.025935987 0.003036711 -0.010909732 -0.053803045 0.005369914 -0.020041257 0.022398068 -0.0074492646
-0.037169095 -0.01035042 0.014258576 -0.0048891846 -0.0013789211 0.008333041 -0.01756529 0.019786645
-0.028395139 0.0025160194 0.012900723 -0.0508848 0.007507528 -0.013842046 0.010455447 -0.043910883
0.0041565844 -0.022998024 -0.015081041 -0.03377078 -0.058421656 -0.054389756 -0.053893562 -0.035231158
0.018842632 -0.001359529 -0.040100593 -0.02086682 -0.020496108 -0.030746719 -0.031188266 -0.029664103
-0.009203106 -0.010800255 -0.039056905 -0.0243412 0.01800826 -0.0022180006 -0.03577152 0.0062426166

fc1.bias f4 [120]
00000000: 0b97 3cbd 4034 90bd ad5f ccbd 6646 6c3e
00000010: d66a ef3d dcca 5e3e 8962 87bc c600 1b3e
00000020: 6470 0cbe a120 44bd be78 dcbc 1481 483e
00000030: aaa1 93bd 88e2 d03d da70 16be 508f 4c3b
00000040: dfe0 d7bd a1c3 ddbb f268 2fbd c2d1 47bd
00000050: 2e49 563d 278a 283c 9e4f d2bb 4e74 133e
00000060: d306 94bd eae4 23bd a3cc d33c 8e02 6e3e
00000070: baa9 643e 9e9f 8ebd b02f 38bd 7145 52bd
00000080: bd4c 92be 299f 033e a1d5 a43c 51f9 3f3e
00000090: bc9c 00bd 9c76 843e fe4e cb3a e327 de3c
000000a0: 8584 91bd c16c a33d b302 293e 6249 7c3d
000000b0: fb7b 0d3e 272c 8b3e e413 0d3d ab4f 9bbd
000000c0: 1b5f 2a3e 64d1 e1bc c454 833e 843f 8dbc
000000d0: b23e fc3d 1eb4 bfbd ea0a 9a3e 1a37 b9bd
000000e0: cce2 e0bc 5e08 fbbd 81ef 8f3c e562 683e
000000f0: 306c 20bd 9f07 393e 6b81 a3bd c3b7 72bd
00000100: 4c27 af3d 112c 9bbd 042b b33b 1b96 aa3d
00000110: 5189 ae3e eaa3 8c3e 93e9 16bd 3585 9d3c
00000120: ff25 713e 5629 543e 3667 7a3e c58e a2bd
00000130: 9183 893c 0920 8a3e f4b6 323e f89b 2ebd
00000140: 6282 a8bc 9d2a 1ebc 5c59 903d 1d38 d83c
00000150: 6295 bbbb b51f 2ebe d31c 2bbd 4aa3 b3bd
00000160: c47b 5dbd 621d 44bd 0649 81bb 0040 8f3d
00000170: 6e46 67bb 44a4 15bd b063 4b3e e707 0c3b
00000180: 96fb 8abc ed39 f23d a7c6 3abd bdae 2fbd
00000190: f598 6b3e f665 b93e 0e25 e23e 3504 19bc
000001a0: d62a a93c c785 1cbe 5427 c03c 30b5 143e
000001b0: 5ead be3d 2502 b3bc 2617 373e f864 dabd
000001c0: c3ae 553d 80fd f4bc 4851 503e 1800 88bb
000001d0: 8257 423c 9426 b03e 6f91 a23c e0b5 abbc
-0.046042483 -0.07041216 -0.09979186 0.2307373 0.11690299 0.21757072 -0.016526477 0.15137014
-0.13714749 -0.04788268 -0.026913043 0.1958049 -0.07208569 0.101994574 -0.14691487 0.003121335
-0.10540938 -0.0067677055 -0.042824693 -0.048784025 0.052315883 0.010286844 -0.0064181825 0.14399835
-0.07227864 -0.04001323 0.025854414 0.23243162 0.2233037 -0.06964038 -0.044967353 -0.051335756
-0.28574172 0.12853684 0.020121397 0.1874745 -0.031399474 0.25871742 0.0015511212 0.027118629
-0.07105354 0.079797275 0.16504936 0.06159342 0.13816826 0.27182123 0.034442797 -0.07583555
0.16637842 -0.027565666 0.2565061 -0.0172422 0.12316646 -0.093605265 0.30086452 -0.09043713
-0.027451895 -0.12257455 0.017570259 0.22693975 -0.039165676 0.18069313 -0.07983669 -0.05925728
0.08552417 -0.075767644 0.0054677743 0.083294116 0.3408914 0.27468807 -0.036843847 0.019228557
0.2354965 0.20718893 0.24453434 -0.079373874 0.016786369 0.26977566 0.17452604 -0.042629212
-0.020569984 -0.0096537145 0.07048294 0.026393944 -0.005724595 -0.17004283 -0.041775536 -0.08771379
-0.05407311 -0.047879584 -0.0039454727 0.06994629 -0.0035289782 -0.03653361 0.19862247 0.0021367015
-0.016965669 0.11827455 -0.045599606 -0.042891253 0.23007567 0.36210603 0.44168895 -0.009339382
0.020650309 -0.15285407 0.023456253 0.14522243 0.09310411 -0.021851609 0.17879924 -0.106637895
0.05216862 -0.029906034 0.20343506 -0.004150402 0.011861684 0.34404433 0.019844739 -0.020960748

fc2.weight f4 [84, 120]
00000000: e091 b83d d27b b7ba 4bff a43d 50f5 06be
00000010: 64f2 333d ecae 3839 514b f0bd f1b8 2b3e
00000020: 9afd f93c 1f83 57bd bc79 5b3d 4759 b5bd
00000030: 05b7 ba3d 55dc 83bd 517d 78bb e2f3 e2bd
00000040: 1373 403d d181 81bd c640 bebc 23d4 bb3d
00000050: aa0b a8bd 86da a23d 86f7 5dbd aa6e 1a3c
00000060: b76e 29bd 0309 233a a3c8 d6bc 4ec3 233b
00000070: b308 50be e971 61bd 2fb8 0f3c d44f 97bc
00000080: fb3f 8d3c 9a14 20bc dae1 123c 57b8 983b
00000090: 82b5 94bd 953d 13bd 8f87 8b3c 4ae4 e5bd
000000a0: b6f2 a3bd 1157 b7bd ac14 d43c 4991 36bc
000000b0: cf12 893d a039 013e 83a8 693c 60ad 1a3d
000000c0: 04f9 f7bd f2fa 8f3d 488f 23bb aeda fdbd
000000d0: 02a4 10bd e85a 98bd 41d3 983d ff02 9f3d
000000e0: 8d80 2e3d 3942 0d3d ce9c 88bd f87d 44bd
000000f0: cb66 2c3d 034a 933c 1e0b 35bd 7481 5ebd
00000100: 4f88 b23d 99dc 8e3d cc3f ed3a 025c 2b3d
00000110: 8b9f 12bc cf3e 43be 119a 53bd a563 c53d
00000120: 8cd3 febc 02f8 f8bc d838 1d3d 1439 403e
00000130: ac18 863c 87d2 36be e4f0 3d3d fd51 c83c
00000140: add4 9cbc a44d 1bbd 07e7 84be 5f6b d73c
00000150: 0239 e73d 30e0 143d 39cb 0b3d 25b9 a23d
00000160: 9692 ea3a 8ec6 543d 15e9 6bbd d90d 21be
00000170: 2558 dfbd d018 25bd aa96 1e3c 90b4 83bc
00000180: 3d60 ac3c 4b9c 523e 0dc3 11bd eb0f bc3d
00000190: 1ae8 813d 843e f3bb 3fc8 42bc e221 523c
000001a0: 6323 43bd e4e6 0f3d 1332 7a3d f4e1 21be
000001b0: 5164 4ebd 5ea4 9abd 896c 523e ff96 073e
000001c0: c9ef 933d 1f52 28bd 7081 a1bd 364f dabc
000001d0: 3163 813d a6e4 703d b655 ae3a 07c3 aa3c
000001e0: 5cd5 543d 4597 973d da01 37be 0710 eb3c
000001f0: 26cb 223d d8c1 4fbd 5681 9ebd 188a bd3d
00000200: 4339 1cbc 7430 d73d b9ba febd b2ed f3bc
00000210: 3e69 9ebd b56c 41bd bcf3 0f3d 5042 223d
00000220: 5828 a6bd 0718 76bc bc4d 56bc f4d4 aa3c
00000230: 2e2e 7e3d c88f 6ebd 2765 0d3c e532 0239
00000240: dc33 e33d 92db 62bd f262 153d c7f3 133e
00000250: cc5b 9d3d 6c60 083c ecc7 8a3c 1b26 28bd
00000260: 4748 1abe d58d c0bd a6cf 143d 8c5e f93d
00000270: dd1f 943d 9d24 dc3d cc05 33be 6070 bf3d
00000280: 5c93 64bd 7a81 a03d 7016 d73d e54b 123e
00000290: b797 6e3b d389 f9bd b68c fe3d f066 4cbc
000002a0: 26b8 60bd 3672 ef3b 776a 8a3d 3bba 933d
000002b0: eed5 903a 70ac 5abc 2e30 a83d 4bdf d53d
000002c0: 4a22 0fbc 583d 00be f557 503e 6e08 0b3e
000002d0: e285 733d f2d4 03bc d90f 6d3d 8b22 d4bc
000002e0: 2aea cfbd 1688 f8bc 55f8 323d 9524 133e
000002f0: 253d 313e 31d0 aebd c63a 973d 9a1f 2f3d
00000300: fc64 01bd b554 7d3e 707a 133e a376 0f3e
00000310: d254 5bbd 5edf 5ebe 5ae4 073e db87 7c3d
00000320: 3731 dbbd 200e 48bd df78 01bd 82e3 b43d
00000330: 0880 17bd fd70 64bd f2dc 8a3d 0090 97bc
00000340: 7590 48bc 7558 cfbc 183c 333d 2994 1c3c
00000350: 48a0 a83d 8fd7 803c 574d a7bd 3e3d 113d
00000360: e49f 8e3c 9c4a 10be 34e9 1bbd c9e8 86bd
00000370: 5295 563c f73b 473d 0513 23bd d9c3 84bd
00000380: 0fce 5e3d 09aa 27bd 18c4 92bd f0c2 d73c
00000390: 03f6 9ebe 5fd8 4d3d 7b40 5a3e 7321 00be
000003a0: 89f0 cf3c 8229 75ba 714e 543d 8e44 6bbc
000003b0: 0dd2 493d a57c 91bd f29a 1ebd eb91 933d
000003c0: 21ad 893c 1406 043c d754 703d cd44 a6bd
000003d0: c236 cdbd 92cb d5bc b1b7 bd3d c81c a13c
000003e0: 43b1 013d 8469 853d 8f2e 153e f847 a5bd
000003f0: e2f0 1a3d aa24 50bd 131b 04be cd15 2d3b
0.090121984 -0.0013998693 0.08056506 -0.13179517 0.043932334 0.00017612771 -0.117331155 0.16769768
0.030516434 -0.05261528 0.05358289 -0.08854919 0.091169395 -0.064385094 -0.0037916491 -0.11081673
0.046984743 -0.06323589 -0.023224246 0.09171321 -0.0820535 0.07951836 -0.054191135 0.009425798
-0.04136535 0.00062192994 -0.026218718 0.0024988237 -0.20315818 -0.055040274 0.00877194 -0.018470682
0.017242422 -0.009770537 0.00896498 0.004660647 -0.07261182 -0.0359474 0.017032413 -0.11225183
-0.08005278 -0.089521535 0.025888763 -0.011143037 0.066930406 0.12619638 0.014261368 0.037763
-0.12108043 0.07030286 -0.0024957228 -0.123952255 -0.03531266 -0.07439214 0.074621685 0.07764243
0.042603064 0.034486983 -0.06670533 -0.047971696 0.04209022 0.017979627 -0.044200055 -0.054322675
0.08717405 0.069756694 0.0018100678 0.041835792 -0.008949171 -0.19066928 -0.0516606 0.09638146
-0.031106733 -0.030391697 0.03838429 0.18771774 0.016369186 -0.17853747 0.04637231 0.024453158
-0.01914438 -0.03791584 -0.2595751 0.026296316 0.1129017 0.036346614 0.034129355 0.0794547
0.0017896469 0.05194717 -0.05759533 -0.15727939 -0.10905484 -0.040306866 0.009679476 -0.01607731
0.021041984 0.20567434 -0.035586406 0.091827236 0.06343098 -0.007423224 -0.011888563 0.012825461
-0.04764117 0.035132304 0.06108291 -0.1580885 -0.050388638 -0.07550882 0.20549215 0.13241194
0.0722347 -0.04109394 -0.07886016 -0.026649099 0.063177474 0.058811806 0.001330069 0.02084495
0.051961288 0.07401899 -0.178718 0.028694166 0.03974452 -0.050721973 -0.077395126 0.09254855
-0.009535137 0.105072886 -0.12437958 -0.029776428 -0.07734917 -0.04722281 0.035144553 0.03961402
-0.08113164 -0.015020377 -0.013080057 0.020853497 0.06205576 -0.05824259 0.008630074 0.00012416726
0.11093876 -0.05538518 0.036471315 0.14448462 0.076835245 0.00832377 0.016941033 -0.041051965
-0.15066634 -0.09402052 0.03633084 0.121762365 0.0723264 0.10749171 -0.1748268 0.09347606
-0.055804595 0.07837196 0.105023265 0.14286764 0.0036406347 -0.12184491 0.12429182 -0.012475714
-0.054863118 0.007307316 0.06758588 0.07213255 0.0011050084 -0.013346776 0.082123145 0.104429804
-0.0087362025 -0.12523401 0.20346053 0.13577434 0.059453852 -0.008046376 0.05787644 -0.025895378
-0.10152085 -0.030338328 0.04369386 0.14369424 0.17308481 -0.08535803 0.07384257 0.042754747
-0.031590447 0.24739344 0.14402175 0.140101 -0.053547688 -0.21764895 0.13270703 0.061653
-0.10702746 -0.048841596 -0.031609412 0.08832456 -0.036987334 -0.055771817 0.06780423 -0.018501282
-0.0122414725 -0.025310734 0.04375848 0.0095568085 0.08233696 0.015727786 -0.08169048 0.035458796
0.017410226 -0.14090961 -0.038064197 -0.06587369 0.013097124 0.04864117 -0.03981306 -0.064826675
0.05439573 -0.040933643 -0.07166308 0.02633807 -0.31047067 0.050255176 0.2131366 -0.1251276
0.02538325 -0.00093521934 0.05183262 -0.014359606 0.049272586 -0.07103852 -0.038721986 0.07205566
0.016806187 0.00805809 0.05867466 -0.081185915 -0.1002021 -0.026098046 0.09263552 0.019667044
0.03166319 0.06514266 0.14568542 -0.080703676 0.03782738 -0.050816216 -0.12900953 0.00264107

fc2.bias f4 [84]
00000000: cb0f 483c 60d1 a93c bb2d 843c e4cf 053e
00000010: 8596 0c3e e5b0 9a3e 3caf e63d cd03 35be
00000020: 8aa6 73bd aef7 acbb 4771 7f3e 822b 2d3e
00000030: 1718 ddbd 2ab0 b93c fc03 2d3d d538 1e3e
00000040: 9d97 45bd 1d78 d63d f4fb 793d 6887 27bc
00000050: 870f 00be 516e d83c b347 34bd 1070 e4bd
00000060: d050 a33e 0cdd 6b3e 34ab 0cbd 1ff9 0d3e
00000070: 0484 8c3e ac71 283e 8838 bb3d c58a b53c
00000080: c87d 553e f075 d8bb c488 00be e27c e1bd
00000090: bd3c adbd ad62 1fbe ba3d 79bc 275d 29bc
000000a0: ccf5 28be 02a1 a63e 3102 463e 26e2 943e
000000b0: c0e4 5f3e 17ca 543d 76c1 a23e fce2 16be
000000c0: 6458 40bd 7488 dfbd a381 26be 4d9b 493d
000000d0: 1d13 153e ad9f b83d b51a 853e ae30 08be
000000e0: 4cf3 7a3e 2d76 8cbd 427e 803e 9653 7b3d
000000f0: 683d 173a 3181 373e 6770 483e 3af2 06be
00000100: c33e 3e3e 70f0 2abd d31f bdbd fa3c 2ebe
00000110: 3106 5e3d 38ec e63d 5921 7abd 5748 2e3e
00000120: 4cae 8bbd ccf6 313e 6398 833e d130 aabc
00000130: 11dc e93d 2cbe 09be 7f3e 27bd 7604 cbbd
00000140: 3667 c23e 4a9d 92bd 0bd7 0bbc 203f 903a
0.012210797 0.02072972 0.016135087 0.13067585 0.13729294 0.30213085 0.11263892 -0.17677231
-0.059484996 -0.005278549 0.24945556 0.16911128 -0.107956104 0.02266701 0.042240128 0.15451367
-0.048240293 0.104721285 0.061031297 -0.010225154 -0.12505923 0.02641979 -0.04401369 -0.11154187
0.31897593 0.23033541 -0.03434296 0.13864563 0.2744447 0.16449612 0.09141642 0.022160897
0.20848763 -0.006605856 -0.12552172 -0.11010148 -0.084588505 -0.15564986 -0.015212471 -0.010337151
-0.16500014 0.32544714 0.19336773 0.29078788 0.21864605 0.05195054 0.31788224 -0.14735025
-0.046959296 -0.10914698 -0.1626039 0.049220372 0.14558072 0.09014831 0.25996938 -0.1329982
0.24506873 -0.06858478 0.25096327 0.06135901 0.0005769343 0.17920376 0.19574128 -0.1317834
0.18578629 -0.041733205 -0.092345856 -0.17015448 0.054205123 0.11275524 -0.06106696 0.17019783
-0.06820354 0.17379302 0.257022 -0.02077523 0.114189275 -0.13451451 -0.040831085 -0.0991296
0.3796937 -0.07158907 -0.008535157 0.0011005141

fc3.weight f4 [10, 84]
00000000: 382d c1bc 88cd 1dbe 8ec1 ffbd 46d2 1cbe
00000010: 6263 1d3b ba24 093e 7657 883d e1c9 b0bc
00000020: 5654 81bb 16d7 4bbd c5b3 84bd 63a6 00be
00000030: ec20 ddbd de7a 55bd 6dd9 153d 7b45 95be
00000040: 0f00 eabd 5213 023d 9b51 a23d 1e38 06be
00000050: 052c 00be 3f09 bf3c 4ff2 353e 8a0e 64bd
00000060: f773 783c 13e8 17be 71ff b53c 6d6b 813d
00000070: aa73 0f3d fae7 d3bd e731 94bc a73e ac3d
00000080: 9569 cebc 3643 2c3e 05c4 6a3d a54c 7e3d
00000090: 0782 d93d 1232 16be 4110 24bc bf24 9b3c
000000a0: d4ae 0d3e 07d9 02be 1173 5a3d e62a 8ebe
000000b0: 884a 3e3d acc8 163c 97fc 0cba d0ff 423c
000000c0: 00dd 8d3d e174 06bd bb23 53be a5ec aebd
000000d0: e45c a7bd a140 053e a19c 2fbe b7ee 04be
000000e0: 29f5 8bbe d1c5 bbbd 2841 89be c867 983d
000000f0: d5df 6b3d 1da4 e7bd e001 d3bd 6ccc 64bd
00000100: 6871 dfbd 29ff f3bd b3f7 fd3d 3998 043e
00000110: f255 0ebd ae4b 4ebd b9c5 eb3d 1223 cfbd
00000120: 271c bcbc 2253 843d 21b5 20bd aa45 fd3c
00000130: 1085 99bd cf4d aa3c 9c62 ce3c aa28 3e3d
00000140: 34d5 ce3d 4a2e 66bd a142 ef3d 2af3 90bc
00000150: c11b 8b3d e6f1 cabc c3e3 873d afd1 243d
00000160: 7591 2fbe 1d1e 74be 464f 1fbe 0b8d 573d
00000170: 4db8 75bd 5b70 cebc 1b10 27bd c657 103d
00000180: 1578 de3d a9ee 803c 1e34 51bc 352e db3c
00000190: 19fb b6bb 8b01 0a3b 6cb5 aabd 10a0 a4bc
000001a0: e5c2 1cbe da0b 3c3d 5ee9 42be 4eb1 87bd
000001b0: 16ea 3ebe 63c7 59bd 26f9 893d 38e8 1ebe
000001c0: 242e 14be 61ae e93d 7d49 17be aaef 133e
000001d0: b8bc e8bd dd32 99bd fd57 22bb 35d0 34be
000001e0: dbdc 0b3e c6b2 1e3e 58be 8d3b 837e 433d
000001f0: 0039 2abe ddaa 6dbe fa29 3abc fefe e53c
00000200: 2e44 5bbc 1d26 2c3e 5783 59be c21b 023d
00000210: e5fd 0f3e 782d 84bd 4f2e c1bd 1895 743c
00000220: 7f29 a93c 9f5f 86be ef58 53be 1743 603c
00000230: 816e 34bd 212b 253d b2c1 32be 3b9a e3bd
00000240: 6611 f23c 92ec 103e 68db cfbd e202 0cbc
00000250: 4cab ca3d 2ee9 24bc 91f1 d03d 43bc 30ba
00000260: 2855 733d 2d63 d8bd d9b6 bc3d b466 5cb9
00000270: 9e75 11bd cb3e 57be 19c8 94be f20a 3d3d
00000280: 0a78 ce3c 210d b93b 6e47 d43d 31d5 303d
00000290: c87a bdbd a82a ef3d 6a00 2ebe 6d19 f33c
000002a0: 67d5 1dbd 1837 13bd c48a ad3d 66bd b93d
000002b0: d2b7 bcbb cf1d babd f1ed 92bb 8c93 03bd
000002c0: 625d 203e 7ca3 ccbb 673d b5bd 710f 23be
000002d0: 4fdf a5bc e46e e93c e220 a6bc 7430 313e
000002e0: e01c 903c 22fe 003e 1826 d5bd 8498 9e3c
000002f0: 0692 06bb 0e22 c13d 7fea 933d c37b b0bd
00000300: d911 173e f4fb bdbc 3e41 ffbd d9cb 21bd
00000310: d0eb 5e3d c1bf 11be dd8b 97bc deba 8ebd
00000320: d830 aebd e98f f8bb 008d 973d 85ce a93d
00000330: 9d9a 15be 8647 13be b69b c8bd 5a58 93bd
00000340: f175 1c3e 828e 013e f0cc 59bd e8de 9f3d
00000350: b0bf cbbd 4c7f 753c 2f98 c63d 0485 afbd
00000360: 08a4 28be b508 913d a114 163d 8448 8f3c
00000370: 741b a23d 6934 573e 748a 1dbc c1f1 233e
00000380: ee16 023e c71b 9f3c eecd 243d 6467 b0bd
00000390: f062 4fbd 0437 26be 38fc c0bd e4b7 3ebd
000003a0: 6722 8cbd 6963 89bd c2d0 cb3d 5acf 4e3c
000003b0: 8e36 c43a 3c8f 8b3d d87f 9a3d 1e58 0ebe
000003c0: d36e 993d 6a90 51bc 1c66 f43c e829 44bd
000003d0: d304 ffbc b289 afbc 0d27 9a3c 01ad 10be
000003e0: 1c7a 74bd c160 d1bc afec 7f3d 90e6 3dbd
000003f0: ec4c 8c3d 5154 b4bd 5dea c5bd 8127 f23c
-0.023581132 -0.15410435 -0.124880895 -0.15314588 0.0024015536 0.13392916 0.06657307 -0.021580638
-0.003946821 -0.04976567 -0.06479601 -0.12563471 -0.10797295 -0.05211913 0.036584307 -0.29154572
-0.114257924 0.031756707 0.07925721 -0.13107345 -0.12516792 0.023319839 0.17768215 -0.055677928
0.015164367 -0.14834623 0.02221653 0.06319318 0.035022415 -0.103469804 -0.018090202 0.084103875
-0.02519683 0.16822514 0.057315845 0.062084813 0.10620504 -0.14667538 -0.010013641 0.01893842
0.13836223 -0.12778102 0.053332392 -0.27767104 0.046457797 0.009203117 -0.0005378215 0.011901811
0.06926918 -0.03282631 -0.20619099 -0.0854123 -0.08172014 0.13012935 -0.17149593 -0.12981687
-0.2733548 -0.0916859 -0.26807523 0.0744167 0.05758651 -0.11310599 -0.10303092 -0.055859014
-0.109103024 -0.11913902 0.124007605 0.12948693 -0.034749933 -0.050365143 0.11512322 -0.10114111
-0.022962643 0.06461169 -0.039235238 0.030917007 -0.07496083 0.020789055 0.025193505 0.0464255
0.10099259 -0.05619649 0.1168263 -0.017694075 0.06792403 -0.02477355 0.06635239 0.040239032
-0.17145331 -0.23839612 -0.15557584 0.052624743 -0.059990216 -0.02520006 -0.040786844 0.035239957
0.108627476 0.015738802 -0.012768773 0.026755432 -0.0055841324 0.0021058049 -0.08335385 -0.020095855
-0.15308721 0.04590974 -0.19034335 -0.06625615 -0.18643984 -0.053168666 0.067369744 -0.15518272
-0.14470726 0.11410213 -0.14774127 0.14446893 -0.1136412 -0.074804045 -0.0024771683 -0.1765755
0.13658468 0.15497884 0.0043256693 0.047728073 -0.16623306 -0.2320971 -0.011362547 0.028075691
-0.0133829545 0.16811414 -0.21241508 0.031764753 0.14061697 -0.06453985 -0.09432661 0.014928125
0.02064967 -0.26244828 -0.20639394 0.01368787 -0.044050697 0.040324334 -0.17456701 -0.111134015
0.029549312 0.14152744 -0.1014927 -0.008545609 0.098959535 -0.01006536 0.10202325 -0.00067419204
0.059407383 -0.10565791 0.09214563 -0.00021019095 -0.03551256 -0.21020047 -0.29058912 0.046153016
0.025203723 0.005647317 0.10365187 0.043172065 -0.09251934 0.11678058 -0.16992345 0.02967521
-0.038533594 -0.035941213 0.08473733 0.09069328 -0.005759218 -0.09087717 -0.004483931 -0.032123134
0.15660623 -0.006245075 -0.08849602 -0.15923859 -0.020248083 0.02849526 -0.020279352 0.1730364
0.017591894 0.12596944 -0.104076564 0.019359834 -0.0020533814 0.094303235 0.07222461 -0.08617356
0.14752902 -0.02319143 -0.12463616 -0.039501045 0.054424107 -0.14233305 -0.01849931 -0.06969236
-0.0850541 -0.007585515 0.073999405 0.082913436 -0.14609762 -0.14382753 -0.097953245 -0.07194586
0.15279366 0.12652019 -0.05317396 0.07806188 -0.09948671 0.014983963 0.096969955 -0.085702926
-0.16468823 0.07081739 0.036640767 0.017490633 0.079153925 0.21016087 -0.009615529 0.1601019
0.1270406 0.019422425 0.040235452 -0.0861347 -0.050631464 -0.16231924 -0.09423107 -0.04656209
-0.06842499 -0.06708414 0.09951927 0.012622679 0.0014969872 0.06814429 0.075439155 -0.13900802
0.07491841 -0.012790779 0.029833846 -0.047891527 -0.03113023 -0.021427963 0.018817449 -0.14128496
-0.059686765 -0.025558831 0.06248158 -0.04636246 0.06850609 -0.088051446 -0.09663842 0.029559853

fc3.bias f4 [10]
00000000: e154 c2bc d9e9 73be f179 b1bc dced 6d3d
00000010: 7851 f13d e706 23be d417 dd3d ecd4 3bbe
00000020: 979b 9e3d dd28 163b
-0.023722114 -0.23819675 -0.021664592 0.05808817 0.11783117 -0.15920602 0.107955605 -0.18342942
0.0774452 0.002291254
